Example/Results/EXAMPLE_DB/Models/model_Configuration_000000_run_0_val_step_0.pt (torch, 16112 bytes, 4 tensors)

net_layers.0.Param_W f8 [1664]
1.4203130559865107 1.8105874226527554 0.3480056294893716 -0.07452140561764678 -0.2653089768078887 1.9226991059550396 -0.7171332347068261 -0.053235488739976876
0.16559414984049337 -0.8098347479846674 -0.8612054955782263 -0.26985572867759566 -0.0695774108852079 0.43250481404001356 0.13245666146958168 -0.13595460553727817
-0.7803571060808985 0.30281217869573307 -0.5523773901804784 -0.35754299228095004 -1.5775726053180816 0.4059906630651655 1.1045340811935112 1.3161802777623681
-1.0052958028902461 -14.608786212481863 0.0328723880646964 -0.05360799228337848 2.6348305932955562 -0.7935667343213707 4.324254044149566 1.676515557926572
3.8623985666087317 -1.0620330946768235 -1.9870545745811965 -1.8723979472486516 1.4743003879315364 1.2607051643658649 0.011187894237090285 0.013217114310543534
-1.0301691152189107 -0.4528887604421088 1.0636253824288855 -0.5324238982514655 0.14940396263677394 0.07502831208165192 -0.47908026105406637 0.2670375409003898
-0.14721573220874185 1.4194829716592214 1.7296663215033894 -0.08158639899302847 0.013944493692541075 -0.34369391388982334 -0.09872057143272282 1.6409516792350118
-4.645957823358923 -2.300332475982161 1.6385974782671544 -2.582877525951521 10.259768495230636 -2.322330982589211 -2.313837604197935 -2.833221987816083
-1.5489103778015088 0.3791820990942683 0.007646327229566026 2.4642746132701023 -0.43797605226444214 1.9154629234130065 -1.1232001381561418 -0.08538169088580623
0.9550070627414541 0.30476926717539776 -1.5004592507968761 -1.850552213386707 1.8743471439601065 1.1491287925662705 -0.06704765209519245 -0.009317539013357965
0.03437255482860571 11.670249666333415 12.859189639260192 18.432219562094403 4.479168355818124 3.607678639301588 14.3626482837294 13.590345241175518
11.75074169881794 11.436928070993956 7.25931304184369 13.574531919720032 9.185003917454086 15.204161768207365 10.620513426107117 9.679095139640808
7.327400619354231 2.9225561135985765 3.4346043179285646 -1.7204926890811916 -5.323699149347421 -7.393682111875462 -3.2449551197899327 -0.015693161060059323
0.03150247881922353 0.028355281944121083 -0.04021565713952022 0.04735553618991599 -1.929865766821017 -0.4024660615097121 1.2178984797155537 0.6251578753215052
0.44259089271930385 2.305700996254859 0.7043434916714295 1.4764411688234775 0.056180111510214445 1.3992549884382457 -1.7044957304116215 0.08713529601569085
-1.0023604943934825 0.7112837199652333 0.07614467069880472 1.2125795514488367 0.5336354262453945 9.086773860792192 -9.188485614088544 6.7072618686723775
-2.676556286680578 -0.2256701927663325 -0.003498871795820011 0.020991032878607506 -0.03328405067771979 -7.347174158179682 -10.887874289667492 -13.639915823314427
-14.736881894124856 -9.996519734140655 -10.767855987911318 -5.200134150960145 3.582060438396589 8.590244937209512 7.740991937617397 7.054300347768776
6.517989045404498 8.127813022567304 7.337426556162948 6.8534703195822 7.595374260691618 8.85687052635195 7.48549179087614 7.756427620844042
7.426355447072848 8.031520282539992 8.474666324840562 0.022905809953730455 -0.008315523166051185 -0.08512997004743608 -0.01265274050113923 -0.05818729474843658
-0.001807202692733198 1.359932277330456 -0.7710451955259678 -10.715174931736124 -3.5970923610796954 -6.937200351919244 -3.976227940182728 -1.1963139621366565
0.8863800755842689 -1.4301745011707279 -1.916349275805787 -4.2472662841487665 -1.8046253072578136 0.5017787644121021 -1.0272996392145985 0.17239695393124996
0.5662754539859587 0.07052837520128803 0.16689544385683375 3.7268409121681065 5.934413167902163 3.9530135565738362 0.010596677231104586 -0.012929863293986339
-0.11773916101095074 -0.011929939588461135 -2.876748679348392 -0.9638901768304584 0.4605634083975833 -1.4087900199932135 -5.051462705457083 -2.430072502414797
3.49983366834116 5.488015928448978 0.5454133312762276 1.0939802002127488 0.7047693416198351 1.8392689233683495 -0.6205967912980309 -0.4654226821747427
0.0557568218159104 0.7734397105566475 0.4501598837224813 -0.058272756087141525 -0.9516480017244966 1.1393623165971154 -0.6905142655478645 1.7649219717373181
-0.027451606957256697 -0.02423524151344888 -0.019720672011884446 0.12916404514266064 0.4521889921581746 -0.6807019078818608 0.38267606430258094 -0.008394965680301698
-0.01984612225159515 -0.22659926885389292 0.11504401515040164 -0.7577457492282575 -0.47050518493520116 -0.27781714075969094 -0.35414247293309287 -0.08170981969580336
-0.6964595607112032 0.04012267041008307 -3.2928458895215478 -18.062234921666168 8.158970319900726 6.4735934893314075 3.4144177486455995 -6.889559330333347
2.994883681488967 -0.044798367039539475 -1.131964352182038 -0.0667462818337628 -2.1946280321053795 -0.30365980274864274 -0.012936983854763582 0.057054995051157006
-0.09009965229648148 0.0504672188614963 -0.06519745158717669 -0.023055036991556508 -0.11631756922322145 -0.027093441353799413 -0.0614980663541241 -0.06528477370599582
-0.0388082969139763 0.02699512964612784 -0.04397127342220533 -0.03638014215612372 0.02088813439295361 0.06224002635481306 -0.03273253225339916 -0.0445819356209433
00000000: bcb3 d82e 9ab9 f63f f07a 6d84 2af8 fc3f
00000010: 83c4 5e67 b945 d63f 7ad0 fab7 d513 b3bf
00000020: 1c68 ae80 d2fa d0bf 5e01 4223 60c3 fe3f
00000030: a918 be65 c1f2 e6bf c3e2 3f96 ae41 abbf
00000040: e0a6 fc68 3032 c53f 0746 b88f 2aea e9bf
00000050: 479b d4d3 fe8e ebbf d6be 53f6 5045 d1bf
00000060: a3d5 4a40 d3cf b1bf db85 eaab 28ae db3f
00000070: e018 9302 57f4 c03f e6f7 42e4 f566 c1bf
00000080: 7a32 3a77 aff8 e8bf 1e09 1555 4661 d33f
00000090: e3ff 3b59 13ad e1bf abae b000 fce1 d6bf
000000a0: bf81 aec5 bc3d f9bf d028 1643 c0fb d93f
000000b0: 56b2 c0ed 2bac f13f b512 0a0d 130f f53f
000000c0: c483 430d b115 f0bf 0abb 91d3 b237 2dc0
000000d0: 22cc 5b4f a6d4 a03f f899 52bb 8172 abbf
000000e0: 35a3 e50f 2214 0540 6552 6310 e664 e9bf
000000f0: 5cdf 8c40 094c 1140 257a 48fa 01d3 fa3f
00000100: 3f9d 3d38 31e6 0e40 8d81 0e6a 16fe f0bf
00000110: 4c18 d3bc f9ca ffbf e57c c88c 57f5 fdbf
00000120: 4556 ea00 bc96 f73f 5998 ad2d d92b f43f
00000130: 2a12 e0be ade9 863f 8eb2 b00d 9311 8b3f
00000140: 806e 339c 927b f0bf 1cca b423 21fc dcbf
00000150: 12a4 8b0c 9c04 f13f fe29 d3d7 9d09 e1bf
00000160: d578 b546 ab1f c33f ce2e aa32 0e35 b33f
00000170: 15ba 5841 40a9 debf 042c 3ea0 2417 d13f
00000180: e488 a511 f7d7 c2bf 8215 c8c6 33b6 f63f
00000190: 4998 bd97 b6ac fb3f fa34 79a3 d8e2 b4bf
000001a0: 1c2f f342 ee8e 8c3f 0f6d ffc1 14ff d5bf
000001b0: 4ff8 be59 c045 b9bf 2d17 4a8c 5641 fa3f
000001c0: 0cb0 b7f7 7595 12c0 2329 92b6 1467 02c0
000001d0: af72 47fd b137 fa3f 0948 3cb1 bba9 04c0
000001e0: eb17 4f60 0085 2440 68aa 2544 2294 02c0
000001f0: ef47 324a bd82 02c0 54d3 1f4a 70aa 06c0
00000200: d17a 913f 56c8 f8bf 35aa b5fe 8444 d83f
00000210: 6f02 2b56 c151 7f3f 77dd c29b d5b6 0340
00000220: ba0b 3ab5 cc07 dcbf 9126 4c73 bca5 fe3f
00000230: 9ae4 43b5 a0f8 f1bf bd1e 0812 93db b5bf
00000240: d98d bdf8 6a8f ee3f b207 d6f4 5681 d33f
00000250: b173 328f e101 f8bf c494 40a3 dc9b fdbf
00000260: f98d 4a6e 53fd fd3f f46c 6fdf d462 f23f
00000270: 76be 05f1 082a b1bf 7f8c bbea 1215 83bf
00000280: 14d7 bc8d 4799 a13f 261d daf6 2a57 2740
00000290: 7f5e 53b4 e7b7 2940 0ce3 f3f0 a56e 3240
000002a0: 5711 061c abea 1140 8d39 529e 86dc 0c40
000002b0: f822 2d09 adb9 2c40 6b65 40bb 412e 2b40
000002c0: 4455 4837 6180 2740 2f3f 3f09 b5df 2640
000002d0: 6894 a85b 8909 1d40 4969 3b0c 2926 2b40
000002e0: c231 5ed5 b85e 2240 9d16 2be4 8768 2e40
000002f0: ccb7 8fef b33d 2540 7842 af5b b25b 2340
00000300: 2a44 a31b 424f 1d40 c50b 8519 6561 0740
00000310: eaa0 21d4 117a 0b40 e5c5 8957 2387 fbbf
00000320: c2c2 30ca 774b 15c0 ee19 4e67 2193 1dc0
00000330: 5ae2 a307 abf5 09c0 1663 1836 de11 90bf
00000340: c101 8bc8 1721 a03f 44b6 79c2 2a09 9d3f
00000350: 5c1c 6788 2597 a4bf 76c2 701e fc3e a83f
00000360: e1a8 22ed bae0 febf eac8 fb02 01c2 d9bf
00000370: 6d9f c31d 837c f33f 7cf7 aa16 4b01 e43f
00000380: a028 6fc0 6853 dc3f 6627 2a5d 1372 0240
00000390: b822 bc5c fb89 e63f a109 69c6 809f f73f
000003a0: 5677 3ebb a3c3 ac3f c7b6 e132 5963 f63f
000003b0: fca1 a450 9d45 fbbf b3f4 b6ae 7f4e b63f
000003c0: f28e 6328 ab09 f0bf 5ab1 6d13 d6c2 e63f
000003d0: a182 6a96 377e b33f 7056 d4d0 b966 f33f
000003e0: 6dc0 f699 8a13 e13f 1080 9c9f 6d2c 2240
000003f0: b58d b82f 8160 22c0 729f 8e74 3cd4 1a40
00000400: fd91 a957 9669 05c0 5884 cec8 c2e2 ccbf
00000410: 4840 f37d aaa9 6cbf a63a e45e ac7e 953f
00000420: f246 476a 9b0a a1bf 9e97 5d9f 8163 1dc0
00000430: 8729 7a75 97c6 25c0 21a8 fa0b a347 2bc0
00000440: c48f 6895 4879 2dc0 cce7 a7d5 37fe 23c0
00000450: d83b 886b 2489 25c0 07bf 84f7 efcc 14c0
00000460: 91ab 994d 0fa8 0c40 8ce3 9b95 342e 2140
00000470: 63aa 2a97 c6f6 1e40 3350 a782 9a37 1c40
00000480: 58cb 66b8 6b12 1a40 e5db 5fb5 7041 2040
00000490: 4b16 de58 8659 1d40 50d9 9a1f f469 1b40
000004a0: e533 4aca a961 1e40 052d cfbb b7b6 2140
000004b0: 7128 91c2 24f1 1d40 d743 55f6 9406 1f40
000004c0: ed98 b685 96b4 1d40 0357 2d6d 2310 2040
000004d0: cc67 eb76 07f3 2040 f803 8fe2 9e74 973f
000004e0: 6ce9 60a0 ba07 81bf ea60 43e5 13cb b5bf
000004f0: 1ce1 4115 aee9 89bf 8678 f99f b9ca adbf
00000500: c020 9a1d f59b 5dbf b88b fe58 48c2 f53f
00000510: e0b3 50f9 66ac e8bf 8d73 9d68 2b6e 25c0
00000520: cf3a 1c5c d8c6 0cc0 df2b f572 b1bf 1bc0
00000530: c835 2498 50cf 0fc0 8000 f21b 1a24 f3bf
00000540: f3bb 8ebf 395d ec3f 4b9f 61a8 fee1 f6bf
00000550: 46c9 b4db 5da9 febf 224a 6f5f 33fd 10c0
00000560: d84c 43c9 bedf fcbf c645 df56 920e e03f
00000570: a7e8 19bf d16f f0bf 4f49 8877 1a11 c63f
00000580: 3cb6 6cb3 ed1e e23f f5f6 edc8 250e b23f
00000590: 70b6 9b74 d45c c53f 2e41 d9f7 91d0 0d40
000005a0: bf5d 34ce d6bc 1740 c008 5192 c59f 0f40
000005b0: 041c 3bf1 b5b3 853f 2a56 eadf f87a 8abf
000005c0: 8921 0056 2724 bebf 0c6d 0163 b96e 88bf
000005d0: 78e6 c4cf 9403 07c0 ec84 4d36 30d8 eebf
000005e0: 8752 33f2 de79 dd3f 26d5 6c67 678a f6bf
000005f0: 7f9b b3a3 b234 14c0 543e 26da c970 03c0
00000600: 4eb8 57cb a8ff 0b40 3576 9272 baf3 1540
00000610: 2f48 94a8 0674 e13f 242a e661 f180 f13f
00000620: 6e61 2f6f 788d e63f b8a8 2640 a56d fd3f
00000630: 2315 54cd eddb e3bf b074 b037 7cc9 ddbf
00000640: 27db 747c 288c ac3f 9c97 c8a2 04c0 e83f
00000650: 42ca a366 6bcf dc3f ccbb 483b edd5 adbf
00000660: 20bc 9682 e673 eebf 4245 01fb d33a f23f
00000670: 9d62 7e5f b118 e6bf 6ba8 49d2 1e3d fc3f
00000680: a58f 6a28 461c 9cbf 96fc d786 1fd1 98bf
00000690: a47e 62e5 a731 94bf 4378 da8a 7288 c03f
000006a0: 4d8e 3b19 aaf0 dc3f 3cad 155e 4fc8 e5bf
000006b0: 9e0f 49bf c37d d83f 6a2d 6238 6131 81bf
000006c0: 4f92 17b8 8a52 94bf 9832 8370 3401 cdbf
000006d0: a8e7 ab4a 8673 bd3f ccc9 7303 743f e8bf
000006e0: a949 79c7 c11c debf c330 758b c1c7 d1bf
000006f0: 1cd2 d730 45aa d6bf 2704 5b4b efea b4bf
00000700: 74b7 878f 6549 e6bf eb9e 7a6a f58a a43f
00000710: c81a f295 bf57 0ac0 ae39 b9a0 ee0f 32c0
00000720: 3d04 ca8e 6451 2040 911b 11b1 f5e4 1940
00000730: b584 aa40 ba50 0b40 9688 1ea4 e88e 1bc0
00000740: b68d 5a93 85f5 0740 96b3 b2c2 cfef a6bf
00000750: 3fc1 0da7 861c f2bf 4409 9bc9 4816 b1bf
00000760: 3438 4624 998e 01c0 2793 7a86 296f d3bf
00000770: b24d 8594 b47e 8abf 06e6 a2f3 4f36 ad3f
00000780: 548e fe53 c510 b7bf 8076 0fdd d6d6 a93f
00000790: ae76 59ba c7b0 b0bf b916 8c57 bd9b 97bf
000007a0: 6092 c3fb fcc6 bdbf dbe0 3312 62be 9bbf
000007b0: eb32 84af ac7c afbf 9f77 febf 80b6 b0bf
000007c0: 6833 1e5c aede a3bf e4f3 ec7b 9ca4 9b3f
000007d0: 44aa 9f1a 6783 a6bf 8f9a 9101 6ba0 a2bf
000007e0: ae66 5ef8 b263 953f 3e67 64bb ecdd af3f
000007f0: a654 1687 51c2 a0bf f6f9 f786 71d3 a6bf

net_layers.0.Param_b f8 [8]
-4.477460895926995 3.0470262772561814 3.291381332726133 4.895556209436595 2.974332152578316 -3.5734599066752244 -3.619395183929034 -2.6009941320183003
00000000: 4f80 5482 ebe8 11c0 84f1 1650 4f60 0840
00000010: 02ca 75bc bf54 0a40 240a ddaf 0c95 1340
00000020: 071f d6a7 6ecb 0740 fee5 c525 7296 0cc0
00000030: 6b33 5276 85f4 0cc0 20da f002 d6ce 04c0

net_layers.1.Param_W f8 [16]
-11.780976089057551 -31.699596782536286 -34.50894390518089 47.339001786653725 -8.467858604004107 -24.76758201513905 -13.203090933327065 -8.574083043622153
11.313900869442614 30.84810069789282 32.51887621587696 -46.47050749642608 1.247239712258907 22.03738816779351 13.212870372695905 8.083776094737186
00000000: 9beb 1219 dc8f 27c0 5361 55c6 18b3 3fc0
00000010: 0f20 ea12 2541 41c0 4e7b 1969 64ab 4740
00000020: 20b3 b629 8bef 20c0 1e05 4441 80c4 38c0
00000030: fa81 e988 fb67 2ac0 3017 7336 ee25 21c0
00000040: 4de2 609d b7a0 2640 192a 9920 1dd9 3e40
00000050: 90ee 2c89 6a42 4040 20d6 f296 393c 47c0
00000060: 92ca e6a0 b1f4 f33f 34ee 5d45 9209 3640
00000070: 5108 7258 fd6c 2a40 662a 46b3 e42a 2040

net_layers.1.Param_b f8 [1, 2]
-5.462800361541454 5.280020143251183
00000000: 1097 8556 e8d9 15c0 b5f0 b599 bd1e 1540
