Examples/CustomDataset/Results/EXAMPLE_DB/Models/model_Configuration_000000_run_0_val_step_0.pt (torch, 4144 bytes, 6 tensors)

net_layers.0.Param_W f8 [8]
0	0x3fefcb9c0717e3a4	0.9936046732465127
1	0x3fef7928d05d3956	0.9835399694073128
2	0x3fec98be47ad7c06	0.8936454200701298
3	0x40107ec71f8e64c1	4.123806469980253
4	0x3fd7f3ccf8d29505	0.37425541209297847
5	0x3fd2a64553a62a1b	0.29139836472373454
6	0x3fd9dff15aa5716f	0.4042933831422237
7	0x3fd87132aa0debd5	0.38190905196068786

net_layers.0.Param_b f8 [2]
0	0xc014793a9e392490	-5.118387672651025
1	0xbff70dd08aae8a2f	-1.4408727090127618

net_layers.1.Param_W f8 [100]
0	0xbfead16ad4229b4b	-0.8380636351838374
1	0xbfe0cd1270c76458	-0.5250332071983719
2	0xbfccf265b7aa9450	-0.22614737957079223
3	0x3fc8eab58465e71e	0.19466275181530873
4	0x3ff13f7521a63637	1.077992564623299
5	0x3fdb4b937b7e23cf	0.4264877992614488
6	0x3fcf9e997fdd0b3c	0.24702757590611124
7	0x3fc4a5cd1256532a	0.1613098468339101
8	0xbfd0431e80115e50	-0.2540966272985985
9	0xbfd4a3d579588c71	-0.3224996266382681
10	0xbff6166f2f22be68	-1.3804771271933536
11	0xbf82bf3b9bf6a300	-0.009153810212255475
12	0xbfd0272bd0db1ff5	-0.2523908176049184
13	0xbfe206bdb2d65da4	-0.5633228772084533
14	0xbfd8fb934b7fe45f	-0.3903549420643397
15	0xbfbb3de22a7cd0d4	-0.10641301667493802
16	0xbfe18aea04b2a591	-0.5482072917704263
17	0x3fea7f8c490c4eff	0.828069822952301
18	0x4008188bcb4504a8	3.0119853859365158
19	0xbff30a8621561990	-1.190069322795896
20	0xbfbff5b3a406d83e	-0.12484286074217807
21	0x3fa79e80eabb998e	0.046131161359698955
22	0xbfbcb6c03fff794a	-0.11216355860185448
23	0x3fb134b9b9465ea9	0.06721077702820345
24	0xbff44d0bc54cc83f	-1.2688100535419975
25	0x40112886a3076226	4.289576098752638
26	0x400d6afb13cc9cbc	3.6772367045228673
27	0x40186cbdaf29637f	6.106192337895549
28	0x4006557a07fc1e1e	2.7917366622748565
29	0x4008dcf914f130f9	3.107896960840773
30	0x3fa84736f5d922b8	0.04741832495762338
31	0x4029b451e215b579	12.852187218809137
32	0xc01a214f394bb0e1	-6.532528777355965
33	0xc0204d4cb6394277	-8.150975889672948
34	0xc027433f3987f0d3	-11.631341741413427
35	0xc020686c87ed9530	-8.203953025581171
36	0xc0278672e490d783	-11.762595312767877
37	0xc026d7487a3479b2	-11.420474833398519
38	0xc01a5ea628237aba	-6.592430712857714
39	0xc0311e91767a3f93	-17.119407086225305
40	0xc0374bccbbed7b8a	-23.296092744330544
41	0xc0309cabac178563	-16.611994510405008
42	0xc023fd5765636c02	-9.994807403933013
43	0xc028b274ca9b3d84	-12.348547297907096
44	0xc02647f43a0e6210	-11.140535177474732
45	0xc02e6ddf8a47bde0	-15.214596101052791
46	0xc02a2ade74043c46	-13.083728433148405
47	0xc02b893c0d6bf18e	-13.768036288668352
48	0xc021f23d68f118ed	-8.973124770575362
49	0x3fc9e4c65efd03a3	0.20229415548422222
50	0x4005bf2eedbbacd0	2.7183512280367736
51	0x3ff571dedcdf1294	1.340300429133241
52	0xbfea1cfb3acdb778	-0.8160377644069134
53	0xbfe0c93b30eb303b	-0.524564357323022
54	0xbfdd2b68dba44f60	-0.4557745118083769
55	0xbffdbcc7bbc17666	-1.8585889181335005
56	0x3fca95e7f7577687	0.20769977166394346
57	0x3ff81d13421d71d5	1.5070984442346476
58	0x3ffb22fea4049c45	1.6960436255410667
59	0x3fb24e23cc2bdf96	0.07150481924679605
60	0xbfeb997be4cf2ece	-0.8624858349735065
61	0x3febf0226aad570f	0.8730632861649797
62	0x3ffbcf3cd67d5839	1.7380951288701125
63	0x3fbc5b7a21a32e28	0.11077082940317295
64	0x3fffba94a0f56014	1.9830518996659565
65	0x3fffc1e1b3c2632a	1.9848343870018632
66	0x3fb4289ff6d83bdf	0.07874488617402119
67	0xc0135d6bb1d89cca	-4.841231135221458
68	0xc026d0b16ec0a81c	-11.407603703515683
69	0x3fc000f71d2f3a8e	0.12502945828460493
70	0xc0237756209ddaab	-9.733078974980648
71	0xc01a192619bd520c	-6.524559404545027
72	0xc01df637b82a8c14	-7.490446927639841
73	0x400fee44e92f2016	3.991342374563838
74	0x3fc928d04a7968cf	0.19655803333700425
75	0xc00a4bf7702a8d67	-3.287093044565768
76	0xbfb6c0ad36c3a6e8	-0.08887751185434534
77	0xbf56c3e1c1fc1bc0	-0.0013894753137166788
78	0xbfc32388fda50b66	-0.14952194581027384
79	0x3fc7c9be6cf92e91	0.1858442337128179
80	0xbfd288d6b0520978	-0.2896019670371497
81	0x3f9106947f9133c8	0.01662666348083855
82	0xbfe40c08a4272db6	-0.6264689642061316
83	0x3fb20bd2e6dbd8fa	0.07049291740608857
84	0xbfcc3ae155d90dee	-0.22054688159742802
85	0xbfa18d01691ed7f6	-0.034278911668863474
86	0xbfd64963a001a194	-0.34822931886312714
87	0x3fc45501b9f8f8e9	0.1588441999501307
88	0xbfd7ec38fae6fcae	-0.37379288198639926
89	0xbfbdb1cc03075241	-0.1159942157167473
90	0xbf6b0fd844fc8620	-0.00330345382816756
91	0xbfc9c8f70036e4df	-0.2014454604193707
92	0xbfd0895c9eade9d0	-0.25838389869718714
93	0x3fb8e9cf8c8a43de	0.0973176687350725
94	0xbfd9cbf3865be5aa	-0.40307319756501647
95	0x3fa8d104c153af98	0.04846968517253386
96	0xbfc046b903cf1808	-0.12715828596100232
97	0xbfbb7c30a0663be0	-0.10736373821258338
98	0x3f638c2686af35a0	0.0023861649001221813
99	0xbfd4c92dd7b57d32	-0.3247789961369164

net_layers.1.Param_b f8 [2]
0	0xc0071a3311581eae	-2.8877927165047685
1	0x3ffaff613b3b1e28	1.6873485864360962

net_layers.2.Param_W f8 [4]
0	0xc0280cc1acd797e5	-12.02491512424235
1	0x4033a0d03ffb880d	19.62817764178185
2	0x4026b826cd360fc6	11.359671032761877
3	0xc0331126e84ef183	-19.066999930642407

net_layers.2.Param_b f8 [1, 2]
0	0xc01306ea234e7fa1	-4.756752540270015
1	0x4011e71def23368e	4.475700127147901
